…
heck if the code corresponds to the model we have in mind. For this torchinfo is quite a useful tool. It provides a tabular overview.\n\nimport torchinfo\n\nmodel = MyFirstNN(X_train.shape[1])\nbatch_size = 8\ninfo = torchinfo.summary(model, (batch_size, X_train.shape[1]), col_width=12)\n# Nicer formatting for the notes\ninfo.layer_name_width=15\nprint(info)\n\n================================================================\nLayer (type:depth-idx)                   Output Shape Param #\n================================================================\nMyFirstNN                                [8, 2]       --\n├─Sequential: 1-1                        [8, 2]       --\n│    └─Linear: 2-1                       [8, 2]       2,050\n│    └─Tanh: 2-2                         [8, 2]       --\n│    └─Linear: 2-3                       [8, 2]       6\n================================================================\nTotal params: 2,056\nTrainable params: 2,056\nNon-trainable params: 0\nTotal mult-adds (Units.MEGABYTES): 0.02\n================================================================\nInput size (MB): 0.03\nForward/backward pass size (MB): 0.00\nParams size (MB): 0.01\nEstimated Total Size (MB): 0.04\n===================================
…
